name: "3dup_1fc"
layers {
  name: "data_55"
  type: DATA
  top: "data_55"
  top: "label_3dnorm"
  data_param {
    source: "/nfs/ladoga_no_backups/users/xiaolonw/seg_cls/sliding_window_edge_high_test_scale/leveldb/3d_test_db1/"
    mean_file: "/home/xiaolonw/3ddata/3dnormal_win_cls_high/leveldb/3d_train_db_slv_tri/3d_mean.binaryproto"
    batch_size: 100
    crop_size: 0
    mirror: false
  }
}
layers {
  name: "conv2_55"
  type: CONVOLUTION
  bottom: "data_55"
  top: "conv2_55"
  blobs_lr: 1
  blobs_lr: 2
  weight_decay: 1
  weight_decay: 0
  convolution_param {
    num_output: 64
    #pad: 1
    kernel_size: 5
    #group: 2
    weight_filler {
      type: "xavier"
      #std: 0.01
    }
    bias_filler {
      type: "constant"
      value: 1
    }
  }
}
layers {
  name: "relu2_55"
  type: RELU
  bottom: "conv2_55"
  top: "conv2_55"
}
layers {
  name: "pool2_55"
  type: POOLING
  bottom: "conv2_55"
  top: "pool2_55"
  pooling_param {
    pool: MAX
    kernel_size: 3
    stride: 2
  }
}
layers {
  name: "norm2_55"
  type: LRN
  bottom: "pool2_55"
  top: "norm2_55"
  lrn_param {
    local_size: 5
    alpha: 0.0001
    beta: 0.75
  }
}
layers {
  name: "conv3_55"
  type: CONVOLUTION
  bottom: "norm2_55"
  top: "conv3_55"
  blobs_lr: 1
  blobs_lr: 2
  weight_decay: 1
  weight_decay: 0
  convolution_param {
    num_output: 192
    pad: 1
    kernel_size: 3
    weight_filler {
      type: "xavier"
      #std: 0.01
    }
    bias_filler {
      type: "constant"
      value: 0
    }
  }
}
layers {
  name: "relu3_55"
  type: RELU
  bottom: "conv3_55"
  top: "conv3_55"
}



layers {
  name: "pool3_55"
  type: POOLING
  bottom: "conv3_55"
  top: "pool3_55"
  pooling_param {
    pool: MAX
    kernel_size: 3
    stride: 2
  }
}
layers {
  name: "norm3_55"
  type: LRN
  bottom: "pool3_55"
  top: "norm3_55"
  lrn_param {
    local_size: 5
    alpha: 0.0001
    beta: 0.75
  }
}

layers {
  name: "conv4_55"
  type: CONVOLUTION
  bottom: "norm3_55"
  top: "conv4_55"
  blobs_lr: 1
  blobs_lr: 2
  weight_decay: 1
  weight_decay: 0
  convolution_param {
    num_output: 384
    pad: 1
    kernel_size: 3
    group: 2
    weight_filler {
      type: "xavier"
      #std: 0.01
    }
    bias_filler {
      type: "constant"
      value: 1
    }
  }
}
layers {
  name: "relu4_55"
  type: RELU
  bottom: "conv4_55"
  top: "conv4_55"
}
layers {
  name: "conv5_55"
  type: CONVOLUTION
  bottom: "conv4_55"
  top: "conv5_55"
  blobs_lr: 1
  blobs_lr: 2
  weight_decay: 1
  weight_decay: 0
  convolution_param {
    num_output: 256
    pad: 1
    kernel_size: 3
    group: 2
    weight_filler {
      type: "xavier"
     # std: 0.01
    }
    bias_filler {
      type: "constant"
      value: 1
    }
  }
}
layers {
  name: "relu5_55"
  type: RELU
  bottom: "conv5_55"
  top: "conv5_55"
}
layers {
  name: "fc7_55"
  type: INNER_PRODUCT
  blobs_lr: 1
  blobs_lr: 2
  weight_decay: 1
  weight_decay: 0
  inner_product_param {
    num_output: 4096
    weight_filler {
      type: "xavier"
     # std: 0.005
    }
    bias_filler {
      type: "constant"
      value: 0.1
    }
  }
  bottom: "conv5_55"
  top: "fc7_55"
}

layers {
  name: "relu7_55"
  type: RELU
  bottom: "fc7_55"
  top: "fc7_55"
}





layers {
  name: "fc8_3dnorm"
  type: INNER_PRODUCT
  bottom: "fc7_55"
  top: "fc8_3dnorm"
  blobs_lr: 1
  blobs_lr: 2
  weight_decay: 1
  weight_decay: 0
  inner_product_param {
    num_output: 6760
    weight_filler {
      type: "xavier"
      #std: 0.01
    }
    bias_filler {
      type: "constant"
      value: 0
    }
  }
}


layers {
  name: "softmax_3dnormal"
  type: MULTI_SOFTMAX
  bottom: "fc8_3dnorm"
  top: "fc8_3dnorm"
}



layers {
  name: "loss_3dnorm"
  type: MULTI_SOFTMAX_LOSS
  bottom: "fc8_3dnorm"
  bottom: "label_3dnorm"
}
